…
8080/"},"id":"mmWN_YOx17Kb","executionInfo":{"status":"ok","timestamp":1714426743442,"user_tz":240,"elapsed":216,"user":{"displayName":"Princeton Power Electronics","userId":"04815773103473656676"}},"outputId":"7a94a8fb-b37c-429d-9727-e2f929824af6"},"execution_count":null,"outputs":[{"output_type":"stream","name":"stdout","text":["Model: \"sequential_6\"\n","_________________________________________________________________\n"," Layer (type)                Output Shape              Param #   \n","=================================================================\n"," random_flip_6 (RandomFlip)  (None, 64, 64, 1)         0         \n","                                                                 \n"," random_rotation_6 (RandomR  (None, 64, 64, 1)         0         \n"," otation)                                                        \n","                                                                 \n"," rescaling_6 (Rescaling)     (None, 64, 64, 1)         0         \n","                                                                 \n"," conv2d_18 (Conv2D)          (None, 61, 61, 64)        1088      \n","                                                                 \n"," max_pooling2d_18 (MaxPooli  (None, 30, 30, 64)        0         \n"," ng2D)                                                           \n","                                                                 \n"," conv2d_19 (Conv2D)          (None, 26, 26, 64)        102464    \n","                                                                 \n"," max_pooling2d_19 (MaxPooli  (None, 13, 13, 64)        0         \n"," ng2D)                                                           \n","                                                                 \n"," conv2d_20 (Conv2D)          (None, 9, 9, 64)          102464    \n","                                                                 \n"," max_pooling2d_20 (MaxPooli  (None, 4, 4, 64)          0         \n"," ng2D)                                                           \n","                                                                 \n"," flatten_6 (Flatten)         (None, 1024)              0         \n","                                                                 \n"," dense_18 (Dense)            (None, 64)                65600     \n","                                                                 \n"," dense_19 (Dense)            (None, 64)                4160      \n","                                                                 \n"," dense_20 (Dense)            (None, 11)                715       \n","                                                                 \n","=================================================================\n","Total params: 276491 (1.05 MB)\n","Trainable params: 276491 (1.05 MB)\n","Non-trainable params: 0 (0.00 Byte)\n","_________________________________________________________________\n","None\n"]}]},{"cell_type":"code","source":["def get_orientation(d
…
